app/src/main/assets/model/model_id2.tflite (tflite, 8752 bytes, 6 tensors)

sequential/dense/BiasAdd/ReadVariableOp/resource f4 [33]
00000000: b9c1 c33c b714 943d 563d ee3d 619a d8bc
00000010: d565 84bd 0a31 b03d 063e 0d3e 8507 013d
00000020: fd54 8abd 8590 b23d 372f 753d 87ea b33d
00000030: 87be e9bd c7d4 553d baaa c1bc c82c 9dbd
00000040: 74b9 d83c 31d4 56bd 4785 0dbd d895 febd
00000050: b218 843d 74b3 383d 0c38 9f3c 4743 2f3d
00000060: 1aca a6bd 251b eebd 971b 163e 69a7 673d
00000070: 2885 043d 9b6a 33be d8be f93d efa3 aabc
00000080: 3470 b63d
0.023896085 0.072305135 0.11632793 -0.026440801 -0.064647354 0.086031035 0.13793191 0.03150131
-0.067544915 0.08718971 0.05985948 0.08784967 -0.11413293 0.052204873 -0.02364098 -0.07674557
0.026455618 -0.052448455 -0.03455093 -0.12430924 0.06450023 0.045093015 0.019435905 0.04278877
-0.081440166 -0.11626271 0.14658962 0.05655614 0.03235355 -0.17521136 0.12194604 -0.020830123
0.0890812

sequential/dense_1/BiasAdd/ReadVariableOp/resource f4 [31]
00000000: 7e9a 0cbc b577 083e 0436 e03c 2f8f 003b
00000010: b7a8 c4bd a830 c03d b3e8 7e3d ebb0 a83d
00000020: 3ed9 c13c a0bb 273e 5c57 013e 2dc8 8fbd
00000030: 67de 723e 4213 a9bd 0137 3e3e 95b2 f73c
00000040: 7599 543e 8a42 2c3d cd85 913c 0cae b43d
00000050: 0af6 e73d 89c2 30bc cbf9 7c3d bd94 463c
00000060: bc33 e93d ef90 8c3d 69ad bbbc 8f08 473e
00000070: b9b2 3c3e 003e bcbb af1b 3d3e
-0.008581756 0.13326915 0.027369507 0.0019616594 -0.09602492 0.093842804 0.062233638 0.082368694
0.02366316 0.16380167 0.12630981 -0.070206024 0.23717652 -0.08255626 0.1857567 0.030236522
0.20761664 0.042055644 0.017763996 0.08822259 0.11326225 -0.010788568 0.06176166 0.012120423
0.11386821 0.068635814 -0.022909837 0.19436859 0.18427552 -0.0057446957 0.18467592

sequential/dense_2/BiasAdd/ReadVariableOp/resource f4 [2]
00000000: 52c7 f2bb ffc7 f23b
-0.0074090147 0.0074090953

sequential/dense/MatMul f4 [33, 18]
00000000: f048 d0be 52f2 963d 268b 3ebd 78f3 0d3f
00000010: 1d5b cdbd 44c2 d93b c48f 68bf 5c1e 0ebe
00000020: a425 913e f261 3fbc 60d2 f73d 9ea9 463e
00000030: b8cd 113f 5fd9 aa3e d102 2bbd 51d0 b03e
00000040: 237c 56bd 3457 6fbe 7675 18be 99ff 5ebe
00000050: af2c 893e 4207 37bf 8563 b03e 3145 99bd
00000060: 43bc 5fbd 801c 713e e1f7 383d af0d ebbe
00000070: 4afe d1bd 9b81 8c3e 34cd ccbe c7be 64bd
00000080: 5bc2 5a3e d597 383e 6694 303f f0db bfbd
00000090: 952f 75bd 665b ba3e 6efa de3e 31f0 86be
000000a0: 2a5e 163e 7637 d63e 2182 5f3e e246 a83e
000000b0: 1b7d a83d 547a 0cbf 06e1 933d 6f0f f23e
000000c0: f5e4 29bc d61c d33e 5341 2e3f 87f6 8bbd
000000d0: b608 643c d13d c63e 4177 013f 1f6b c33e
000000e0: e106 ac3d 6a84 84be ca92 28be 1509 823e
000000f0: 9b00 b2bb ac3a eb3e d763 0c3f a3c8 3b3e
00000100: 16c1 b23e b656 e83d 299d 133f 8eb9 24bf
00000110: 7162 8dbc cd2b 693c 4acf 9e3e 0ef0 e9be
00000120: c2f4 483e 5227 f6bd 32d2 a73e d476 94be
00000130: 5051 fe3d fde0 503e cd32 ff3c db52 db3e
00000140: 58ac 94be 038c a5bd 69b0 6f3e 6f76 183e
00000150: ee65 9ebe 866c d7be 0739 503f 50f4 53bf
00000160: cc26 b4be 5d05 0dbf 38e7 1a3d ba41 dfbe
00000170: cca0 cbbe 6455 0abe 6c0a ed3d 2392 b23e
00000180: dab4 ef3b 4441 4ebe bc1c 673e 08cf 8ebe
00000190: 7e41 4ebe 283d 3dbe 7c2b 1dbe a110 7dbf
000001a0: d86e c93d fec7 8c3d 1fa7 0b3f 41de 29bf
000001b0: ade4 7ebd a843 c03d 03b6 d9bd 8986 bcbd
000001c0: 3412 b0bd 06e7 22bb eb4d fa3e 69d0 073f
000001d0: 5dbc d8be 9c8f 8e3a 21aa 18be c2aa 1fbe
000001e0: 6934 aabe 529f 3bbe 926a 87be d481 c3bc
000001f0: 089b a83e 8466 2fbd 95fe 97be c156 f43d
00000200: 739f ebbe 79a4 c5bc 694f a53a 1b15 6b3e
00000210: d5a5 543e 30ad 943e 53f7 f6be dda8 47be
00000220: 4e54 793e 5141 dcbe cadd af3d 8ebb c93d
00000230: 5065 f9bd 71a6 e8bd f370 313f 0567 12bf
00000240: 71b9 dd3b 0495 26bf 62fb 5c3e 1d84 7c3e
00000250: 05ae b1be bde4 3fbf b962 ce3e ca3f a63d
00000260: c5b6 95be a9e2 48be 8562 903d b00d d0be
00000270: 1397 a13e d2b4 b9bd 1dd4 0f3f 7cf9 fbbd
00000280: 4b02 953e 06f1 85bc 2cb1 0a3f 1242 67be
00000290: ea8e 25bd 29c8 86be 7287 8dbe 47f9 d33e
000002a0: 2550 053e 974f 333e 7a42 3a3d 946f 9dbe
000002b0: 4cb4 283f ff49 9c3e 47a0 1cbe 66ad 003f
000002c0: 30ae 453e 404b 03bf 875b b5be 47bf b7bc
000002d0: 00f0 4e3e db72 193e 648c 85be 8710 d93e
000002e0: 31d3 36bd 9011 c83e eed6 81be 9044 dd3e
000002f0: 4004 fabe 0f32 593d e386 593e d0d1 eb3d
00000300: 087a 2c3e f1c5 bdbe b2c8 74ba 9777 44bf
00000310: 03a0 023f d785 893d 0dd6 e6bd ef3d 9b3e
00000320: 48e7 28be 6afa babe 8ebf 843d b525 be3d
00000330: 3a73 093f 087e e03d f3b8 0cbd 628a eebe
00000340: e92e c43e a912 25bf 95bd e13c 2604 e7be
00000350: 6c04 aa3e b867 043f c488 113d ad46 6d3d
00000360: 54c3 f73d 5ae5 803e f07c d9be 3404 7bbe
00000370: be28 6fbc 7135 94be 2ef0 5d3e ea16 a1be
00000380: 69be 973e 1335 2c3e 0464 48be 8545 b93e
00000390: 5791 d5be af33 f0bd 2a1a d8be b09c 8c3e
000003a0: a9f8 d13e 82c5 bfbe 737c f63e 7d50 fbbd
000003b0: 239f cb3d f89b c0bd 401f abbe 841a ea3d
000003c0: 0a9f d2be f93c 56be af90 c33d 21cd 063f
000003d0: 057c 11be 669c e33e 2603 88bc a2bd 863e
000003e0: b251 fbbe 02d0 e0be 5cc6 8d3e a852 1fbd
000003f0: 256d 8c3e 2612 a1bd 4b5a e2bd 5171 ba3e
-0.40680647 0.07370438 -0.04651942 0.5544963 -0.10027144 0.0066454727 -0.9084437 -0.13878769
0.2834903 -0.011681067 0.12100673 0.19400641 0.56954527 0.33368966 -0.041750733 0.34533933
-0.05236448 -0.23373109 -0.14888558 -0.2177719 0.26791903 -0.7149545 0.34450927 -0.074839
-0.0546229 0.23546028 0.04515827 -0.45908877 -0.1025358 0.2744263 -0.40000308 -0.055846002
0.21363203 0.1802667 0.6897644 -0.093681216 -0.05985983 0.36397856 0.43550438 -0.26355127
0.14684358 0.41839188 0.21826984 0.3286658 0.08226987 -0.5487416 0.07220654 0.472774
-0.010369529 0.41232938 0.68068427 -0.06834131 0.0139180925 0.38719037 0.5057259 0.38167664
0.083997495 -0.25882274 -0.16462246 0.25397554 -0.005432201 0.459432 0.54839844 0.18338256
0.34912938 0.11344664 0.5766168 -0.64345634 -0.017258855 0.014231634 0.31017524 -0.4569096
0.19624618 -0.120192185 0.32777554 -0.2899691 0.12417853 0.20398326 0.031152153 0.4283665
-0.29037738 -0.08083346 0.23407139 0.14888929 -0.3093714 -0.42074984 0.81337017 -0.82794666
-0.3518585 -0.5508631 0.037818164 -0.43604833 -0.39771116 -0.13509136 0.115742534 0.34877118
0.0073152604 -0.20142084 0.22569555 -0.27892327 -0.20142171 -0.1848036 -0.15348619 -0.988535
0.09835595 0.06874083 0.5455188 -0.6635476 -0.0622298 0.093879044 -0.10630419 -0.09205348
-0.08597222 -0.002485694 0.48887572 0.53052384 -0.4233121 0.0010876539 -0.14908649 -0.15592483
-0.3324311 -0.18322495 -0.26448494 -0.023865618 0.3293078 -0.042822376 -0.29686418 0.119306095
-0.46020088 -0.024126278 0.0012612167 0.2295727 0.20766385 0.29038382 -0.48235568 -0.1949801
0.24348566 -0.43018582 0.08587225 0.09850226 -0.12177527 -0.11359871 0.6931297 -0.57188445
0.006766491 -0.6507113 0.2158027 0.24659772 -0.3470308 -0.749584 0.40309694 0.081176355
-0.29241005 -0.19617714 0.07050041 -0.40635443 0.31560573 -0.09067692 0.56183034 -0.12303445
0.29103312 -0.01635028 0.5417659 -0.22583798 -0.040419497 -0.26324585 -0.276424 0.4140112
0.13018854 0.1751083 0.045473553 -0.3074919 0.6590011 0.30525205 -0.15295516 0.50264585
0.19304729 -0.512867 -0.35421392 -0.022430075 0.2020874 0.1498522 -0.26083672 0.42395422
-0.044635 0.390759 -0.2535929 0.43216372 -0.48831367 0.053026255 0.21242861 0.11514628
0.16843426 -0.3706508 -0.0009337767 -0.7674498 0.5102541 0.06714981 -0.11271296 0.3032069
-0.16494477 -0.36519176 0.06481849 0.09284536 0.53691447 0.109615386 -0.03435607 -0.46589953
0.3831704 -0.644816 0.02755622 -0.45120353 0.332065 0.5172076 0.03553082 0.05792873
0.12097803 0.2517498 -0.42478132 -0.24513322 -0.014597116 -0.28947023 0.21673653 -0.31462795
0.2963746 0.16817121 -0.19569403 0.36185852 -0.41712448 -0.11728608 -0.42207462 0.27463293
0.41010025 -0.37455374 0.48141822 -0.12271211 0.09942462 -0.09404749 -0.3342228 0.11430839
-0.41136962 -0.20921697 0.095490806 0.5265675 -0.14207466 0.4445526 -0.016603064 0.26316553
-0.49085766 -0.43908697 0.276904 -0.038897187 0.2742702 -0.0786479 -0.11052378 0.3641458

sequential/dense_1/MatMul f4 [31, 33]
00000000: 238b 213e d13f 66bf de77 52bf bab8 cb3e
00000010: 4a54 29bd ee98 e43e 5553 a93d 2cd0 3f3f
00000020: ca80 4a3f 0d2e d53c 1081 ff3e 02af 183d
00000030: f1d8 103e 1a48 dcbc 6f28 7e3e 1fe9 9b3e
00000040: 813f 43bf 6f83 6bbe 5132 9b3e f48f 8dbe
00000050: c7f5 67be e7ff 503e 2380 f4bc dfc6 a5bd
00000060: 16cb 30be d9b4 8bbe 0fe0 d93d c36d abbe
00000070: 50e5 81bf 803d 94bd f694 353e cd17 74bf
00000080: 20bc c5be c002 263e 1c17 c3bd 1ada a8be
00000090: 1126 093e 593a 51be 5c9d 91bd 4c3d 73be
000000a0: 2e23 2dbc c043 38bf de52 a1bc cc37 ed3d
000000b0: 76b2 3bbf eb31 fabe 106f 743e d4c7 3a3e
000000c0: b3d9 12bf 2fcb bdbd 297e 83be 69d6 24be
000000d0: 1c0d 29bd a0ed 17bf 177f 66be 4c12 f5be
000000e0: d487 d23e 88d4 f63d 0cc6 e5be c2e3 b53e
000000f0: 1b2d b73e fb7a b9bc f9c7 60be 26d1 16bf
00000100: 9e9d e3bd 2b4a 403e 553d e4be 2830 a63e
00000110: 5b58 853d d11b b33c 2768 b03e ce74 df3e
00000120: e6ec febd fa77 4a3e dfeb 6a3e a731 483d
00000130: 5d29 ee3c efa8 fd3e c7c2 8d3e 56e5 17be
00000140: 59b8 e43e 75e9 e83e 51f9 8dbe 7941 7cbe
00000150: 0f64 c4be bc99 863e 2f41 353e 65bc 26be
00000160: 72f2 843e 92eb 3bbc 7b96 89be b101 8dbd
00000170: 5d4e 1dbf 2ef0 103f 2412 84be 3ea4 023f
00000180: aa6a d5bd 64b3 4c3e 5363 693e 2cd6 003e
00000190: e5ed 15bf 6cb9 ecbe c9cd c13e f9e7 1fbf
000001a0: 9641 fd3d efba 12bb 14c3 3e3d 3eec 153f
000001b0: 91b5 49be daf0 653e c88a f43d 51d2 80be
000001c0: f8db 16be 7073 0bbf 9d30 083f 248a 9fbe
000001d0: 1154 9a3e 7637 213f 3c89 76bd 5f2c 15be
000001e0: 211f 403e 6a66 1d3f afe1 923e 0b0f 7dbe
000001f0: c635 c43e ef27 903e 7ce3 99be a576 9abe
00000200: bc7a 84be fe71 293e 397e 0cbf 9f46 86be
00000210: cc88 8bbe 4597 93be 1641 7abe 9d3f a93d
00000220: 9907 43bd fc79 62be f166 b4bd b946 64be
00000230: b01a 223e 67bc ad3d 9021 52bd 38a4 45be
00000240: be53 a2be 7863 22be 31e5 323e d732 9ebe
00000250: d427 69be d716 2cbe 89b4 80bd c2b6 a5bd
00000260: b1af 413e ffd9 07bd ce63 d53d 66ee 74be
00000270: 4500 7ebc f2ad 6cbd c3c9 8abe 91a9 7cbe
00000280: 7729 1a3d 24fb 16bd 690d 8bbe de18 c23d
00000290: 0f97 70be 5956 c33e 346c 853e 3de2 b13e
000002a0: 20df 47bf 0f4f b5be f4d7 8c3e 6dcd fcbe
000002b0: edbc 9dbe ea56 91be b539 b3bd 187b 2ebf
000002c0: 13ef 0bbf ed1f 24be 8842 1f3e 97fe cfbe
000002d0: f0cf 5dbe 214d 7a3e 57eb e83e 3f1a 7dbf
000002e0: aa81 0b3f 494b 973d 5d85 173f 83a5 f03d
000002f0: 32da 19be d038 d2be 1386 f9be 8b6c c13d
00000300: 5262 85bf cee4 95be 57f0 31bf 3c87 1d3f
00000310: f09f b03e e494 ed3d 5237 15bf c081 cf3e
00000320: a835 9a3d 802c 47be 712f 743f f681 af3e
00000330: d944 5ebb d37a 813c 00ea 3b3e 20d7 a33e
00000340: da46 d53d 5a64 333f f2d5 103f f955 7ebe
00000350: 18de 3b3f 7e56 323f 034a 2e3d d9f1 97be
00000360: 763e 003f 8033 d9bc 47e8 243e 23a5 dabe
00000370: 0137 92be d7e8 c23c 3121 00be 3fb4 94be
00000380: 90ba 1abe 3a45 163f 79f9 d43e aab4 173f
00000390: cee7 aebe 23cb 77be 23de e33e ed03 a0be
000003a0: f915 873e 4839 423d af5c a5be c2c1 0e3f
000003b0: cd7c d33e 55bf 803d b951 933e c4c7 8f3e
000003c0: 26e9 543d adfd d03e fac8 2c3f b27b a5bc
000003d0: 97d7 4abf b092 2e3f a298 383f e294 5abd
000003e0: 729f 983d 1b7c 693f 6efc 713d 6255 f93e
000003f0: 834a 16be 5b5b b53e 668c a1bd 7ac2 a0be
0.15775733 -0.89941126 -0.8221415 0.39789373 -0.04134015 0.44647926 0.082678474 0.7492702
0.79102767 0.026022935 0.49903154 0.037276275 0.14145257 -0.02688985 0.24820112 0.30451295
-0.76268774 -0.22999357 0.30311826 -0.2764889 -0.2265235 0.20410119 -0.029846257 -0.08094572
-0.17264971 -0.27286413 0.10638439 -0.3348218 -1.0148106 -0.07238293 0.17732605 -0.9534882
-0.3862009 0.16211987 -0.09525892 -0.32978898 0.13393427 -0.20432414 -0.07110092 -0.23753852
-0.0105674695 -0.7197838 -0.019692834 0.11582908 -0.73319185 -0.4886621 0.23870492 0.18240291
-0.5736343 -0.0926727 -0.2568219 -0.16097416 -0.041272268 -0.5934696 -0.22509418 -0.47865522
0.41119254 0.12052256 -0.4487766 0.35525328 0.357766 -0.02264165 -0.21951284 -0.58912885
-0.111140475 0.18778293 -0.44578043 0.32458615 0.06510993 0.02186385 0.34454462 0.43643802
-0.124475285 0.1977233 0.2294154 0.048875477 0.029072458 0.4954295 0.27687666 -0.14833578
0.44671896 0.45490614 -0.27729276 -0.24634351 -0.3835759 0.26289165 0.17700647 -0.16282804
0.2596622 -0.011469739 -0.2687262 -0.06885088 -0.614477 0.56616485 -0.2579509 0.51031864
-0.10420735 0.19990307 0.22791795 0.125817 -0.58566123 -0.46235216 0.37852314 -0.6246334
0.12366025 -0.0022389253 0.04657276 0.585636 -0.19698168 0.22455159 0.11940533 -0.2516046
-0.14732349 -0.5447302 0.5319918 -0.3116008 0.30142263 0.6297525 -0.06018947 -0.14567707
0.18761875 0.61484396 0.28687808 -0.2471277 0.38322276 0.28155467 -0.3005637 -0.30168644
-0.2587489 0.16547391 -0.548801 -0.26225755 -0.27252805 -0.28826347 -0.24438891 0.082640864
-0.047614668 -0.22116846 -0.08808697 -0.22292604 0.15830493 0.084832005 -0.05130154 -0.19300926
-0.31704515 -0.15858257 0.17470242 -0.30898163 -0.227691 -0.16805588 -0.06284434 -0.08091499
0.18914677 -0.03316688 0.10419427 -0.23919067 -0.015502994 -0.057783075 -0.27107057 -0.2467406
0.0376372 -0.0368606 -0.2715867 0.09477399 -0.23495124 0.38151816 0.26059115 0.3474292
-0.78074837 -0.3541188 0.2750851 -0.49375477 -0.308082 -0.28386623 -0.08751241 -0.68156576
-0.54661673 -0.16027804 0.15552723 -0.40623924 -0.21661353 0.24443485 0.4549205 -0.98868173
0.54494727 0.073874064 0.5918787 0.11750319 -0.15024641 -0.4105897 -0.48735103 0.09444531
-1.042063 -0.29276127 -0.69507354 0.61534476 0.34497023 0.11600664 -0.5828754 0.4052868
0.07529765 -0.19450569 0.9538489 0.3427884 -0.0033915548 0.015805637 0.18350983 0.32000065
0.104139045 0.70075 0.56576455 -0.24837483 0.73385763 0.69663227 0.04255105 -0.29676703
0.5009531 -0.026513815 0.16104232 -0.42704114 -0.2855759 0.023792667 -0.12512662 -0.29043767
-0.1511023 0.5869938 0.41596583 0.59260046 -0.34161228 -0.24198584 0.44505414 -0.31252995
0.2638395 0.04741791 -0.32297274 0.557644 0.41306153 0.06286494 0.28773287 0.28082097
0.05198016 0.4081854 0.67494166 -0.020200584 -0.79235214 0.6819258 0.721079 -0.053364642
0.07452287 0.91204995 0.059078626 0.48697954 -0.14676861 0.3542126 -0.07888107 -0.31398374

sequential/dense_2/MatMul f4 [2, 31]
00000000: 8c7d 75bf ca6f 2d3f c955 77bf e54e 01bf
00000010: 72b8 9bbd d02c 623f 8790 0dbf 56a6 13bf
00000020: 3e6a d83e 7170 a5bf 6d27 0a3f 6aaf 0f3e
00000030: d1ed 083f 1ce4 59be 2ca6 623f 2eff 93be
00000040: 287e 90bf 9b9c 5ebf be17 1abf f8a9 5ebf
00000050: d985 70bf 49cb 743f cc47 b7bd 9db2 3abf
00000060: ad73 5fbf 81b0 20bf 5aa6 4c3e 761e a1bf
00000070: c405 c03e 63e6 6bbe ce5b c3bf 91f2 b63e
00000080: 58f9 0bbf 3231 613f 52c0 a23e abd4 87be
00000090: 8244 8dbf cf5c 8b3f aec4 523f d684 fbbe
000000a0: da99 143f aa23 e1be e36a 043e d4b7 0abf
000000b0: affb 99be 73d2 c4be ac3a 9d3e f579 8b3f
000000c0: 8c42 af3e a7ee 1b3f f254 363f 0d3c 203f
000000d0: ef59 88bf b408 183f 9167 c93e c6da 423f
000000e0: d568 053e 0e42 d7be 47fb b53f 0aa7 1dbf
000000f0: 344f 903d 3c2a c83f
-0.95894694 0.677487 -0.9661527 -0.5051101 -0.076035395 0.8834963 -0.55298656 -0.57675683
0.42268556 -1.2924939 0.5396641 0.14031759 0.5348788 -0.21278423 0.8853481 -0.28905624
-1.12885 -0.8695771 -0.6019248 -0.869781 -0.93954235 0.9562269 -0.08949241 -0.7292879
-0.8728588 -0.62769324 0.19985333 -1.2587421 0.375044 -0.23037104 -1.5262392 0.35731938
-0.54677343 0.8796569 0.31787354 -0.2652944 -1.1036532 1.0887698 0.8233136 -0.49124783
0.5804726 -0.43972522 0.12931399 -0.5418675 -0.30074832 -0.3844181 0.30708826 1.0896593
0.3423046 0.6091103 0.71223366 0.6259163 -1.0652446 0.5938828 0.39336827 0.7611507
0.13028271 -0.42042583 1.4217309 -0.61583006 0.07046357 1.5637889
