app/src/main/assets/model/model_kp2.tflite (tflite, 30292 bytes, 6 tensors)

sequential_1/dense_3/BiasAdd/ReadVariableOp/resource f4 [65]
0.24098301 0.17856136 0.16374516 0.3138012 -0.060074996 0.067497924 0.2473588 0.062286902
0.36559486 -0.07363907 0.25071055 0.18943687 0.06427828 0.122114874 -0.03260904 0.20289944
0.16227175 0.17226003 0.17622888 0.18556008 0.022383077 0.16064525 0.10406623 0.35647598
0.18273254 0.15713514 0.23060933 0.21658295 0.20444104 0.23492289 0.21293126 0.22343077
0.022497341 0.13222069 -0.055336367 0.3806705 -0.018959608 0.004518245 -0.13436751 0.11585732
0.15101677 0.017501056 0.25471675 0.13135931 0.28820273 -0.037470113 0.1067573 -0.048843667
0.074501514 0.26204127 0.31366178 0.08333345 0.21899363 0.27697766 0.15178657 0.15550962
0.11519053 0.16338357 0.08282555 0.035939317 0.23272517 0.07531993 0.119393125 0.20853706
0.20117132
00000000: 40c4 763e cad8 363e d0ac 273e 8daa a03e
00000010: 3311 76bd 5a3c 8a3d a04b 7d3e 8d20 7f3d
00000020: 402f bb3e 15d0 96bd 225d 803e bdfb 413e
00000030: 55a4 833d 5d17 fa3d 0f91 05bd dfc4 4f3e
00000040: 912a 263e ef64 303e 5875 343e 7603 3e3e
00000050: b75c b73c 3080 243e ad20 d53d 0584 b63e
00000060: 3d1e 3b3e 09e8 203e da24 6c3e ecc7 5d3e
00000070: fe58 513e a08f 703e a70a 5a3e 09cb 643e
00000080: 584c b83c dc64 073e 63a8 62bd 3ee7 c23e
00000090: 2e51 9bbc c90d 943b a397 09be 9a46 ed3d
000000a0: 24a4 1a3e 605e 8f3c 3c6a 823e 0e83 063e
000000b0: 4f8f 933e 437a 19bd 92a3 da3d 4c10 48bd
000000c0: 4094 983d 462a 863e 4798 a03e baaa aa3d
000000d0: de3f 603e 04d0 8d3e f06d 1b3e ea3d 1f3e
000000e0: 03e9 eb3d 064e 273e 71a0 a93d 1b35 133d
000000f0: 824f 6e3e 5641 9a3d 6284 f43d bd8a 553e
00000100: dbff 4d3e

sequential_1/dense_4/BiasAdd/ReadVariableOp/resource f4 [63]
0.17333192 0.13355482 0.05643128 0.20985094 0.021138785 0.010154821 0.05692504 -0.052056964
-0.10708603 0.106378265 0.20964314 0.23913431 0.10296543 -0.015061417 0.27977663 -0.026792588
-0.044941403 0.15009503 -0.01917003 0.23737697 -0.054560438 0.22795855 -0.072242536 0.3807602
0.034103468 0.1611634 0.25608766 -0.17530635 -0.031672057 0.050832387 0.10120054 0.09502459
0.07276414 0.061014876 -0.041634686 -0.15205108 0.36620864 0.15892828 -0.052430876 0.0499582
0.0336277 -0.11323134 0.10100636 0.11882653 0.21252157 -0.034491405 0.14919594 -0.022163557
0.29724544 -0.042621467 0.11232562 0.11125618 0.0140104 -0.006623906 -0.23346186 0.118131466
-0.20237751 0.04800965 0.10804527 0.02650514 0.18111077 0.18233857 0.19542928
00000000: ec7d 313e 98c2 083e 7c24 673d 2ae3 563e
00000010: 3f2b ad3c 6860 263c 3b2a 693d af39 55bd
00000020: ec4f dbbd d9dc d93d b1ac 563e a0df 743e
00000030: 8adf d23d 29c4 76bc e23e 8f3e 217c dbbc
00000040: 7a14 38bd 83b2 193e 770a 9dbc f312 733e
00000050: c47a 5fbd f76d 693e e5f3 93bd 00f3 c23e
00000060: 14b0 0b3d 0508 253e ec1d 833e 8283 33be
00000070: 8fba 01bd 9f35 503d 3b42 cf3d 419c c23d
00000080: 5e05 953d bcea 793d 2289 2abd 47b3 1bbe
00000090: b37f bb3e 18be 223e c2c1 56bd f8a0 4c3d
000000a0: 33bd 093d d5e5 e7bd 6cdc ce3d 535b f33d
000000b0: 419f 593e dc46 0dbd d2c6 183e 5990 b5bc
000000c0: 8e30 983e d993 2ebd fa0a e63d 48da e33d
000000d0: e08b 653c 5a0d d9bb a010 6fbe e9ee f13d
000000e0: 0d3c 4fbe c4a5 443d d746 dd3d 4f21 d93c
000000f0: 1a75 393e f6b6 3a3e 9d1e 483e

sequential_1/dense_5/BiasAdd/ReadVariableOp/resource f4 [27]
-0.066354185 0.06703798 0.3443761 -0.017093396 -0.010290365 -0.056978658 -0.0085588945 0.06699859
0.054712214 -0.087872274 -0.1470653 -0.04402003 0.017843032 -0.054838747 -0.008736228 0.11219734
-0.17220974 0.011098818 0.1404616 -0.0059294244 0.016334467 -0.20557272 0.08257959 0.13954405
0.06389244 0.08218054 -0.5564569
00000000: b4e4 87bd 354b 893d 1052 b03e 7307 8cbc
00000010: eb98 28bc 7462 69bd 9b3a 0cbc 8f36 893d
00000020: ea19 603d 61f6 b3bd 4998 16be 594e 34bd
00000030: 8d2b 923c 989e 60bd 6522 0fbc b8c7 e53d
00000040: c057 30be d1d7 353c 2ad5 0f3e 9e4b c2bb
00000050: dccf 853c a881 52be 7d1f a93d a3e4 0e3e
00000060: 0ada 823d 454e a83d f673 0ebf

sequential_1/dense_3/MatMul f4 [65, 18]
-0.16983561 -0.40735373 -0.11034783 -0.39440656 -0.44192642 -0.38490385 -0.4541579 -0.1298337
-0.13883434 0.3910648 0.07518953 0.04126891 0.17691372 -0.6554794 -0.1355465 0.22987336
0.06971758 0.039139565 -0.08889316 0.63791746 -0.5216579 -0.2634297 -0.43128708 0.04932742
-0.3532074 -0.647867 0.40996474 -0.14071994 -0.16829297 -0.1292369 -0.19159769 0.39833874
-0.54519004 0.29890808 0.9618141 0.2672173 -0.60807914 -0.19516964 -0.7370558 0.23905362
-0.022233343 0.8606097 -0.3342758 -0.50318086 1.1672193 -0.3225218 -0.2636805 0.35403728
0.09551099 -0.4856781 -0.3569762 -0.76961523 -0.46537277 -0.5244143 -0.35686243 -0.35123193
-0.22675273 0.4493981 -0.25781563 -0.4561605 -0.28216112 -0.012777555 1.298633 -0.26909494
0.21724279 1.7072716 -0.18547666 0.80131406 0.22017261 -0.37821084 0.92113143 -1.2155792
0.38871238 1.0499978 -0.6688356 -0.09816046 1.3692265 0.6928038 -0.42738 -0.58126885
0.29174522 0.14402586 -0.04801537 0.012361246 0.30262816 -0.052822694 -0.10848472 -0.28576306
-0.10313559 -0.43194997 0.676503 0.5493123 0.35918662 -0.5467032 0.396507 -0.47886646
-0.4559447 -0.5965126 0.19987765 0.0010237106 -0.624075 0.7531952 0.24169244 -0.059355944
-0.23097883 0.6237701 0.16349155 -0.42855984 -0.24259835 -0.23056844 -0.28391498 0.29174337
-0.36776984 -0.4850569 0.9500579 0.34091568 0.53945935 -0.068296425 1.0730829 0.87519675
-0.58054525 1.1044197 0.33069763 -0.0963616 -0.055786304 -0.8476696 0.22432698 0.39038202
0.16173439 0.4259946 1.0415355 -0.1557318 -0.52932125 -1.1995975 0.49020317 -0.21342136
-0.40589517 0.20864725 -0.21317059 0.7871356 -1.0733423 0.023418326 -0.0896772 -0.75124985
1.0167534 -1.1240394 -0.033751607 0.37058267 0.69398355 0.01436692 0.22422072 0.049168266
-0.5364275 -0.2240354 -0.30268842 -0.011306991 0.21580897 -0.21864936 0.02147667 0.1547919
0.3796634 0.24144053 -0.1484555 1.2142117 -0.02838246 -0.3744011 -0.6387289 0.59981537
0.05232935 -1.148783 -0.26300064 0.62966496 0.6797677 0.020429028 0.038508497 -0.14530286
0.44585606 -0.08897724 -0.47240344 0.5794173 -0.35682765 -0.7457635 -0.3856696 -0.09559221
0.10810279 -0.027152618 -0.42801663 0.5906321 0.4233697 0.030047104 0.40439603 0.13054107
0.3502248 -0.3431626 0.08970069 -0.012185571 -0.6682917 -0.9178457 0.46782568 0.2395436
0.1355827 -0.50004745 0.19969098 -0.66640586 -0.59159076 -0.37655923 0.13260122 0.29495412
-0.25469548 1.1918173 0.4206925 0.31295282 0.55853087 0.068201795 0.7224883 -1.0877191
0.14100371 -0.70097303 0.8391654 0.21339549 -0.79418355 0.92825395 0.15098232 1.1484101
-0.26465383 -0.7336868 0.51489764 -0.19958627 -0.09142024 0.3013658 0.3493389 0.46819484
-0.07500596 0.050897494 0.25669354 0.8610135 0.12992647 -0.048962288 -0.004237209 0.52729744
-0.34348497 -0.61375904 0.63750887 -0.056807186 -0.09783527 -0.32741982 0.13275012 0.32821867
-0.68289125 0.14015368 -0.19078803 0.12911223 -0.5792754 1.1187721 -0.37266424 -0.024966933
00000000: 63e9 2dbe ab90 d0be 0bfe e1bd a8ef c9be
00000010: 2e44 e2be 1e12 c5be 6287 e8be 20f3 04be
00000020: 972a 0ebe a539 c83e f8fc 993d 9709 293d
00000030: df28 353e 7fcd 27bf b4cc 0abe ec63 6b3e
00000040: 17c8 8e3d cf50 203d 9e0d b6bd 8f4e 233f
00000050: 5f8b 05bf 42e0 86be a9d1 dcbe 8c0b 4a3d
00000060: 9ad7 b4be 9dda 25bf e6e6 d13e e318 10be
00000070: fe54 2cbe ae56 04be 2f32 44be 0ef3 cb3e
00000080: 9391 0bbf 7b0a 993e 7339 763f b5d0 883e
00000090: 13ab 1bbf 8dda 47be b0af 3cbf 79ca 743e
000000a0: b322 b6bc eb50 5c3f 3326 abbe 76d0 00bf
000000b0: 7167 953f 9421 a5be 2101 87be 6044 b53e
000000c0: 449b c33d cdaa f8be 96c5 b6be 8105 45bf
000000d0: 5745 eebe 0440 06bf acb6 b6be acd4 b3be
000000e0: de31 68be 8217 e63e 6900 84be de8d e9be
000000f0: 6c77 90be f358 51bc 9b39 a63f d0c6 89be
00000100: e574 5e3e e087 da3f 98ed 3dbe eb22 4d3f
00000110: ee74 613e daa4 c1be 45cf 6b3f 1998 9bbf
00000120: 4f05 c73e 5466 863f cf38 2bbf 5a08 c9bd
00000130: d042 af3f 975b 313f 8dd1 dabe 09ce 14bf
00000140: a15f 953e 847b 133e c4ab 44bd d386 4a3c
00000150: 14f2 9a3e 9c5c 58bd 3d2d debd 894f 92be
00000160: c138 d3bd 8c28 ddbe 4d2f 2d3f bb9f 0c3f
00000170: 4fe7 b73e bef4 0bbf f702 cb3e fc2d f5be
00000180: 9571 e9be 0db5 18bf baac 4c3e 072e 863a
00000190: 61c3 1fbf 67d1 403f 397e 773e 381f 73bd
000001a0: b785 6cbe 66af 1f3f 546a 273e 326c dbbe
000001b0: b46b 78be 221a 6cbe 4e5d 91be 635f 953e
000001c0: 544c bcbe 6159 f8be ff36 733f 808c ae3e
000001d0: 021a 0a3f ffde 8bbd c85a 893f e50c 603f
000001e0: 9d9e 14bf a05d 8d3f 3351 a93e 3b59 c5bd
000001f0: 2e80 64bd e000 59bf f9b5 653e 27e0 c73e
00000200: b39d 253e f71b da3e 0951 853f 2878 1fbe
00000210: 9981 07bf 698c 99bf e9fb fa3e 218b 5abe
00000220: 7ed1 cfbe a0a7 553e 6449 5abe b881 493f
00000230: 4863 89bf cad7 bf3c aea8 b7bd e951 40bf
00000240: fa24 823f 86e0 8fbf 203f 0abd 03bd bd3e
00000250: e8a8 313f 3b63 6b3c 1e9a 653e aa64 493d
00000260: 5053 09bf 8969 65be faf9 9abe f540 39bc
00000270: 07fd 5c3e 9ee5 5fbe d7ef af3c c581 1e3e
00000280: 3e63 c23e 303c 773e b804 18be 4a6b 9b3f
00000290: 5582 e8bc 80b1 bfbe bd83 23bf 808d 193f
000002a0: 4d57 563d 520b 93bf 05a8 86be b931 213f
000002b0: 4205 2e3f c75a a73c 16bb 1d3d 46ca 14be
000002c0: 3f47 e43e b339 b6bd ddde f1be b154 143f
000002d0: 1db2 b6be 5bea 3ebf 7c76 c5be d9c5 c3bd
000002e0: ff64 dd3d 2b6f debc ff24 dbbe aa33 173f
000002f0: eac3 d83e 5825 f63c ff0c cf3e 8fac 053e
00000300: aa50 b33e 02b3 afbe ffb4 b73d fda5 47bc
00000310: 2a15 2bbf f0f7 6abf d986 ef3e eb4a 753e
00000320: 31d6 0a3e 1c03 00bf cb7b 4c3e 9399 2abf
00000330: 7e72 17bf 5fcc c0be 9dc8 073e 3a04 973e
00000340: 7267 82be 788d 983f 0265 d73e 5a3b a03e
00000350: e1fb 0e3f 62ad 8b3d fef4 383f 613a 8bbf
00000360: 4763 103e f872 33bf 8bd3 563f 5984 5a3e
00000370: 9d4f 4bbf 0da2 6d3f 1c9b 1a3e 1aff 923f
00000380: b580 87be e6d2 3bbf 55d0 033f 5860 4cbe
00000390: 893a bbbd 9e4c 9a3e 8cdc b23e 3cb7 ef3e
000003a0: ba9c 99bd e479 503d 566d 833e 616b 5c3f
000003b0: 720b 053e ae8c 48bd 49d8 8abb f7fc 063f
000003c0: 43dd afbe 501f 1dbf c833 233f a7ae 68bd
000003d0: dc5d c8bd 92a3 a7be a6ef 073e 470c a83e
000003e0: f6d1 2ebf 7284 0f3e f05d 43be ff35 043e
000003f0: 654b 14bf ed33 8f3f d9cd bebe 7487 ccbc

sequential_1/dense_4/MatMul f4 [63, 65]
0.27266395 0.33018738 0.75467825 0.9594709 0.3608501 -0.38525915 0.24554299 0.12286803
-0.25826848 -0.2926034 -0.06535554 -0.0018971429 -0.17424724 -0.11466278 0.02663692 -0.044048276
-0.40343282 0.21621174 0.5546131 -0.9009324 -0.39824387 -0.019227635 0.23369338 0.22275704
0.17298861 -0.07956562 0.18978502 0.6356766 -0.17357257 0.4660928 -0.04631248 0.13803892
0.4397139 -0.016354261 -0.9908123 0.32601985 -0.033761796 -0.15155146 0.056634784 0.05880385
0.23186003 -0.35076854 0.4507926 -0.25348145 0.5666134 0.19829828 0.18344486 -0.34803146
0.24116215 -0.20874083 -0.25682706 -0.36566818 -0.24452022 0.29691884 0.004913701 0.055182632
0.4980172 0.055905696 -0.6779818 0.39159158 0.3461573 0.32324633 -0.23334493 0.31784588
0.1581933 0.18732205 -0.47113326 0.31054053 0.17560251 0.4571344 -0.10723468 1.082471
-0.53154236 -0.25721967 0.07597072 0.17663217 0.06790772 0.5521435 -0.20459247 0.42011425
-0.792858 0.058557432 0.40839916 -0.45241487 -0.39429507 0.016145151 -0.3258553 0.107740864
0.19043551 0.432696 -0.10096902 -0.023491321 0.70492935 0.16024536 -0.03289432 0.062091965
0.3860395 0.3499805 -0.10389298 -0.2193942 0.120762534 -0.16969381 -0.53348744 0.24433742
-0.16237815 0.20952474 -0.18140468 0.09771126 0.33503062 0.22057717 -0.18675913 0.09337443
0.2026212 0.09305508 0.07402119 0.20619467 -0.107581064 -0.07929251 0.043543708 -0.2326217
0.119338386 0.7682269 0.05136028 0.20420659 -0.030646522 0.28524575 0.44439778 -0.31436232
0.05780033 0.099297404 0.19566612 0.099226214 0.0139924325 0.121420115 -0.0053170016 0.17232348
-0.23876569 0.0061495323 -0.42100665 0.14451073 0.25228703 -0.004957383 -0.33756697 0.11115645
0.09665941 0.11027845 0.3064165 -0.45072022 -0.07392694 -0.5175762 -0.2707485 -0.3543569
0.13091117 0.14356788 0.49651906 -0.06971994 -0.46786827 0.30818576 0.30472353 0.04388201
-0.14382371 0.14520863 0.40496206 0.04422634 -0.57850343 0.029699355 -0.001685456 -0.045987364
0.18275353 0.34243968 0.05827084 0.21627322 0.37527645 0.14065453 -0.21154214 -0.08661072
0.039968103 0.33110586 0.25802603 0.27957818 -0.03240383 -0.062486574 -0.021589704 -0.19659257
0.32130033 0.04837198 0.13012977 -0.35923767 -0.45361075 0.031804603 0.21263285 -0.049423784
0.34018975 0.32314548 0.011506649 0.2696388 -0.11348834 -0.13772313 -0.29375643 -0.23349212
-0.016502963 -0.28546378 -0.30703875 0.30087182 -0.57778335 0.34376353 0.33474383 -0.4351632
-0.17667478 0.20670152 -0.115253694 -0.2107048 0.31095734 -0.11188881 -0.10127989 0.22007301
-0.61089706 -0.39494112 0.20374261 0.12221231 0.3900556 -0.5399947 0.339213 0.5376056
-0.39094687 0.018475894 0.043799996 -0.13437292 0.083491415 0.49986932 0.17167476 0.15488729
-0.46482384 -0.10326617 0.16013567 -0.2745144 0.3081646 -0.64917606 -0.20228602 0.21797961
-0.10825501 -0.1244237 0.14351231 0.3535137 0.25567865 0.20111096 0.33229238 0.304133
-0.15481874 0.26211697 -0.009958594 0.259342 0.10414895 0.72316796 0.5196611 0.3630429
00000000: 9c9a 8b3e 520e a93e 9832 413f e39f 753f
00000010: 58c1 b83e b040 c5be 9f6f 7b3e 3ca2 fb3d
00000020: c43b 84be 1dd0 95be 20d9 85bd 8da9 f8ba
00000030: de6d 32be 52d4 eabd ac35 da3c f76b 34bd
00000040: bf8e cebe 9c66 5d3e 20fb 0d3f 81a3 66bf
00000050: 9fe6 cbbe 4683 9dbc 514d 6f3e 6c1a 643e
00000060: ed23 313e 4df3 a2bd 0157 423e b4bb 223f
00000070: 02bd 31be b7a3 ee3e 28b2 3dbd 135a 0d3e
00000080: 2e22 e13e 5ff9 85bc e0a5 7dbf 13ec a63e
00000090: cf49 0abd 4e30 1bbe e0f9 673d 4edc 703d
000000a0: b76c 6d3e ef97 b3be 4ace e63e 52c8 81be
000000b0: 930d 113f b40e 4b3e f8d8 3b3e 2e31 b2be
000000c0: 36f3 763e 28c0 55be d67e 83be dc38 bbbe
000000d0: 8263 7abe bf05 983e 1d03 a13b 2f07 623d
000000e0: 1cfc fe3e 5ffd 643d 3790 2dbf b17e c83e
000000f0: 883b b13e 8b80 a53e f9f1 6ebe b2bc a23e
00000100: 6dfd 213e 5ad1 3f3e 6138 f1be 2bff 9e3e
00000110: 25d1 333e 850d ea3e db9d dbbd 698e 8a3f
00000120: 2913 08bf 4cb2 83be 8996 9b3d 10df 343e
00000130: 3413 8b3d 4759 0d3f b080 51be 3719 d73e
00000140: bef8 4abf ebd9 6f3d b219 d13e eca2 e7be
00000150: 0be1 c9be d642 843c 82d6 a6be 3ea7 dc3d
00000160: 8701 433e 558a dd3e d8c8 cebd df70 c0bc
00000170: 4076 343f 5c17 243e 32bc 06bd 2554 7e3d
00000180: f8a6 c53e a530 b33e d8c5 d4bd e0a8 60be
00000190: 5952 f73d 37c4 2dbe a292 08bf 9733 7a3e
000001a0: 7546 26be a78d 563e 26c2 39be d71c c83d
000001b0: 2289 ab3e fbde 613e c93d 3fbe 183b bf3d
000001c0: ef7b 4f3e a993 be3d 6c98 973d b224 533e
000001d0: 7653 dcbd 1d64 a2bd e35a 323d 6234 6ebe
000001e0: af67 f43d 85aa 443f 285f 523d 881b 513e
000001f0: 6a0e fbbc bb0b 923e 1b88 e33e 19f4 a0be
00000200: 0ac0 6c3d 705c cb3d b35c 483e 1d37 cb3d
00000210: 8440 653c 1cab f83d 3e3a aebb 9175 303e
00000220: fe7e 74be 0482 c93b 2f8e d7be 9ffa 133e
00000230: c42b 813e 8b71 a2bb 94d5 acbe fea5 e33d
00000240: 5ef5 c53d abd9 e13d a0e2 9c3e cdc4 e6be
00000250: 0267 97bd e07f 04bf 8c9f 8abe 456e b5be
00000260: 940d 063e 7503 133e bf37 fe3e 54c9 8ebd
00000270: 6e8c efbe 86ca 9d3e b904 9c3e 9fbd 333d
00000280: 8646 13be 92b1 143e 3057 cf3e ae26 353d
00000290: cd18 14bf 104c f33c 85ea dcba 3f5d 3cbd
000002a0: be23 3b3e 4154 af3e 68ad 6e3d ba76 5d3e
000002b0: 3c24 c03e be07 103e 819e 58be f660 b1bd
000002c0: 98b5 233d b586 a93e fd1b 843e df24 8f3e
000002d0: e1b9 04bd ecf1 7fbd e4dc b0bc 904f 49be
000002e0: 7a81 a43e b321 463d bd40 053e 00ee b7be
000002f0: ab3f e8be 8b45 023d 6dbc 593e 9870 4abd
00000300: 5a2d ae3e 5373 a53e 6286 3c3c 190e 8a3e
00000310: 936c e8bd 4b07 0dbe 3e67 96be 8f18 6fbe
00000320: 3931 87bc 4f28 92be 2f34 9dbe df0b 9a3e
00000330: 9ce9 13bf c601 b03e 8b63 ab3e b6cd debe
00000340: 3cea 34be 90a9 533e 210a ecbd 00c3 57be
00000350: cd35 9f3e f625 e5bd d56b cfbd d25a 613e
00000360: c063 1cbf b935 cabe e7a1 503e 734a fa3d
00000370: 5eb5 c73e 183d 0abf 54ad ad3e 85a0 093f
00000380: 302a c8be c25a 973c a067 333d 0e99 09be
00000390: 8cfd aa3d dfee ff3e 82cb 2f3e c69a 1e3e
000003a0: 64fd edbe 377d d3bd 9bfa 233e 278d 8cbe
000003b0: c0c7 9d3e 6730 26bf 1124 4fbe 0c36 5f3e
000003c0: cdb4 ddbd dad1 febd e4f4 123e bfff b43e
000003d0: 50e8 823e 08f0 4d3e 3a22 aa3e 52b7 9b3e
000003e0: ce88 1ebe 3234 863e 5f29 23bc 7ac8 843e
000003f0: 0b4c d53d 8921 393f 8308 053f c2e0 b93e

sequential_1/dense_5/MatMul f4 [27, 63]
0.48430583 -0.2909626 -0.33811912 0.5858801 -0.492449 0.16581678 0.12199685 0.2106999
-0.9711501 0.61149216 -0.806404 0.2274048 0.26778692 0.2855055 0.15674943 -0.06780787
-0.4151303 0.30168313 -0.08758011 -0.27458665 0.4572574 -0.3411984 0.21579209 -0.6863512
-0.23419543 0.34256256 -0.6483426 0.26080912 0.16606554 0.2922785 -0.74791497 0.08163503
-1.2568905 -0.25874454 -0.018179359 -0.15008259 -1.0054423 0.32204807 0.24206857 0.3595267
-0.533684 0.2101525 -0.59779644 -0.20484675 -0.058138836 0.14957382 -0.82701457 0.27547216
0.6382287 -0.58671904 -0.18749298 0.4567892 -0.047442466 0.23334707 0.34269312 -0.17071521
-1.0205797 0.20239986 0.45150045 0.6231289 0.4917015 -0.1434649 0.040657263 -1.5342329
-0.547183 -0.08156793 0.19549564 -0.14885479 -0.02108187 0.29803485 0.038772307 -0.0025515528
-0.20013751 -0.033978138 -0.040968597 0.11252644 -1.080383 0.016168587 -0.6100275 -0.011169379
-1.4589195 0.17964357 -0.06351932 -0.60084486 -0.52914894 -0.18985288 0.33439916 0.31552678
-0.24726155 0.19006442 -0.22426613 -0.13175665 -0.1507615 -0.00043669308 0.073282935 0.39069617
0.012285313 0.26520562 -0.30039865 0.102176994 -0.26936814 -0.544655 -0.07829144 0.19201455
-0.1425083 -0.057415895 0.14712021 -0.20620795 0.08517409 0.05105216 0.14728242 -1.2424027
0.07134052 0.17530352 -0.25100964 0.029641554 0.6680033 -0.27709156 -0.22410448 0.1157985
0.033749595 -0.57424146 -1.6786879 -0.0821305 -0.0546722 0.36193204 0.10891252 0.327416
0.013043197 -0.21783227 -0.040062334 0.14041305 0.27613238 -0.18449646 -0.030749133 -0.31830096
0.013677775 0.26966584 0.16733515 -0.32113323 0.24975756 -0.4839046 -0.17184554 -0.3413083
-0.07155322 0.1437964 -0.28340176 -0.2741449 -0.6372599 0.2910197 0.40427455 0.23202096
-0.29427183 -0.71267605 -0.2473153 0.09193543 0.27278197 -0.7198191 0.29442042 0.014074889
0.2604199 0.14089514 0.073899195 0.43565395 -1.7635776 -0.22195086 0.16099598 -0.31952876
-0.9255454 -0.16446285 0.37336382 0.1944144 0.37785745 -0.14823623 -0.41182494 0.19886886
-0.24078564 -1.1096456 0.008216181 -0.054499477 -0.38265508 0.29777324 -0.20701972 0.026798667
-1.0437882 -0.45117122 -0.03811577 -0.036181103 0.33364272 0.32187432 -0.73414034 -0.24749485
-1.1895691 -1.3601309 -0.077904135 -0.1859705 -0.059113774 0.04353893 -0.7923343 -0.5354087
0.18858144 -0.18427135 -0.22980392 0.11290615 -1.395839 -0.9847153 0.28080273 -0.03856848
0.552584 -0.34125856 -0.08967779 -0.09880755 -0.011328335 -0.2850507 0.25176933 0.049188253
-1.4596201 0.21452577 0.2273736 -0.4647044 -0.9515118 0.007500985 0.23858641 0.13509314
-0.014250395 -0.34907225 -0.36555547 -1.0119393 -0.4036851 -0.16730323 -0.35074547 -0.29014593
-1.3546753 0.20158878 -0.041834265 0.602638 0.41413674 -0.09271451 0.22840913 0.098132744
-1.2651926 -0.81345165 -0.7184505 -0.66432524 0.33968464 0.31145498 0.15771556 -0.2655933
0.41530597 0.46824715 0.2854471 0.1571797 0.04033538 0.26030853 -0.3952044 -0.71441835
00000000: eff6 f73e 0df9 94be f31d adbe 3dfc 153f
00000010: 4622 fcbe e0cb 293e 7cd9 f93d b7c1 573e
00000020: 4b9d 78bf c08a 1c3f 7e70 4ebf cedc 683e
00000030: 5e1b 893e c72d 923e ec82 203e dade 8abd
00000040: f58b d4be 3676 9a3e 335d b3bd 9f96 8cbe
00000050: a41d ea3e 8fb1 aebe 9af8 5c3e b6b4 2fbf
00000060: edd0 6fbe 5c64 af3e c8f9 25bf c688 853e
00000070: 160d 2a3e 87a5 953e 5b77 3fbf 4430 a73d
00000080: cae1 a0bf 2a7a 84be e1ec 94bc 40af 19be
00000090: 55b2 80bf 7ce3 a43e d3e0 773e e213 b83e
000000a0: 849f 08bf 3832 573e 3009 19bf 59c3 51be
000000b0: fd22 6ebd e129 193e 3ab7 53bf b00a 8d3e
000000c0: f562 233f 3833 16bf 29fe 3fbe 46e0 e93e
000000d0: 0853 42bd 89f2 6e3e 7975 af3e f8cf 2ebe
000000e0: 5ba2 82bf e941 4f3e 112b e73e 6085 1f3f
000000f0: 4dc0 fb3e 76e8 12be 3b88 263d be61 c4bf
00000100: 2f14 0cbf 160d a7bd 0230 483e 646d 18be
00000110: e3b3 acbc 0698 983e b6cf 1e3d f437 27bb
00000120: d9f0 4cbe a92c 0bbd b0ce 27bd 4374 e63d
00000130: fd49 8abf fc73 843c c32a 1cbf c5ff 36bc
00000140: e0bd babf 7cf4 373e 6b16 82bd f8d0 19bf
00000150: 4e76 07bf cb68 42be 5e36 ab3e ba8c a13e
00000160: 2232 7dbe 3fa0 423e 05a6 65be 37eb 06be
00000170: 3961 1abe f4f3 e4b9 5d15 963d 5409 c83e
00000180: 5648 493c 08c9 873e dacd 99be 2c42 d13d
00000190: 9fea 89be 836e 0bbf 4357 a0bd 769f 443e
000001a0: b2ed 11be ee2c 6bbd aea6 163e 2d28 53be
000001b0: c16f ae3d 121c 513d 34d1 163e 0d07 9fbf
000001c0: fb1a 923d c482 333e 5684 80be d8d2 f23c
000001d0: 4402 2b3f f2de 8dbe a57b 65be c427 ed3d
000001e0: 043d 0a3d 7d01 13bf 3fdf d6bf 0934 a8bd
000001f0: f5ef 5fbd 284f b93e 870d df3d 12a3 a73e
00000200: 22b3 553c 6c0f 5fbe 6718 24bd 70c8 0f3e
00000210: 3961 8d3e a4ec 3cbe 9be5 fbbc 58f8 a2be
00000220: bf18 603c a411 8a3e e859 2b3e 936b a4be
00000230: 72c0 7f3e 58c2 f7be 47f8 2fbe f6bf aebe
00000240: 7f8a 92bd 5d3f 133e 091a 91be b85c 8cbe
00000250: 7723 23bf 8900 953e 13fd ce3e e796 6d3e
00000260: ccaa 96be f071 36bf 3940 7dbe a548 bc3d
00000270: 14aa 8b3e 1146 38bf 46be 963e 5d9a 663c
00000280: c255 853e d146 103e 7658 973d 090e df3e
00000290: e9bc e1bf 1647 63be 21dc 243e 4699 a3be
000002a0: 8bf0 6cbf f368 28be 8b29 bf3e 9214 473e
000002b0: 8876 c13e 3dcb 17be b8da d2be 47a4 4b3e
000002c0: 8390 76be de08 8ebf 299d 063c d83a 5fbd
000002d0: 5eeb c3be bc75 983e fafc 53be e188 db3c
000002e0: da9a 85bf eaff e6be 481f 1cbd a332 14bd
000002f0: 38d3 aa3e b6cc a43e 9ff0 3bbf 4a6f 7dbe
00000300: cd43 98bf c518 aebf 348c 9fbd 0d6f 3ebe
00000310: 4921 72bd e155 323d 6cd6 4abf 8b10 09bf
00000320: 7e1b 413e a1b1 3cbe b851 6bbe 573b e73d
00000330: daaa b2bf 4d16 7cbf 60c5 8f3e fcf9 1dbd
00000340: 2576 0d3f 71b9 aebe fda8 b7bd 9d5b cabd
00000350: 7b9a 39bc 2af2 91be e9e7 803e 9f79 493d
00000360: d5d4 babf a5ac 5b3e a0d4 683e bced edbe
00000370: 4796 73bf d3ca f53b ff4f 743e db55 0a3e
00000380: 7d7a 69bc 99b9 b2be 162a bbbe 3a87 81bf
00000390: d0af cebe 8a51 2bbe e994 b3be 028e 94be
000003a0: 0066 adbf 4a6d 4e3e 685a 2bbd 7c46 1a3f
000003b0: bb09 d43e 1be1 bdbd 15e4 693e d2f9 c83d
000003c0: d5f1 a1bf 5e3e 50bf 5fec 37bf 3811 2abf
000003d0: 25eb ad3e 0777 9f3e 3080 213e d8fb 87be
000003e0: fca2 d43e 17be ef3e 1f26 923e b7f3 203e
000003f0: b636 253d 2947 853e 3b58 cabe 1fe4 36bf
